experiments/gpu1/ckpt/ckpt-best.pth (torch, 496829 bytes, 26 tensors)

features.0.weight f4 [64, 3, 3, 3]
0	0x3cd26766	0.02568407
1	0xbdd01ada	-0.101613715
2	0x3d9df5c8	0.07712895
3	0xbe42e5f7	-0.19033037
4	0x3e0dec07	0.13859569
5	0xbcd4cc00	-0.025976181
6	0xbe01ba28	-0.12668669
7	0xbe0ad08d	-0.13556118
8	0x3c032cc6	0.00800628
9	0x3e489c3f	0.19590853
10	0x3d558713	0.05213077
11	0x3d5c0994	0.053720072
12	0x3d7ae845	0.061256666
13	0x3daf03d0	0.08545649
14	0x3d25366d	0.040335108
15	0x3ddb9336	0.10721438
16	0xbe123a21	-0.14279987
17	0xbdcbccaf	-0.0995115
18	0xbe113a6e	-0.14182445
19	0xbd9d47cb	-0.07679709
20	0xbdf4cd19	-0.11953182
21	0xbdac5785	-0.084151305
22	0x3e023475	0.12715323
23	0xbe0625ac	-0.13100308
24	0x3e2740ac	0.16333264
25	0x3ce71b7f	0.028211353
26	0x3e2881ec	0.16455811
27	0x3e1c3d23	0.15257697
28	0x3df59a91	0.11992372
29	0xbd4350c8	-0.04768446
30	0xbd0e12b4	-0.034685805
31	0xbc92c51a	-0.017916251
32	0x3ca9e8d5	0.020740906
33	0xbd9e4678	-0.077282846
34	0xbe3a224f	-0.1817715
35	0x3d9016dd	0.07035611
36	0xbe4de269	-0.201059
37	0x3d908e6f	0.07058417
38	0x3dfc5236	0.12320368
39	0x3df55f0f	0.119810216
40	0xbdbe41a5	-0.092898645
41	0x3e3f5198	0.1868347
42	0x3d538b3d	0.05164646
43	0xbe28767e	-0.16451451
44	0xbbda61c8	-0.0066644885
45	0xbdb9400d	-0.0904542
46	0xbe46bbcf	-0.19407581
47	0xbe3c7988	-0.18405735
48	0x3e1deab7	0.15421568
49	0x3e190aeb	0.14945571
50	0x3dfb14b9	0.12259812
51	0x3c6ec306	0.014572864
52	0x3de5c6be	0.11219548
53	0xbd7e08f9	-0.062020276
54	0xbde63363	-0.1124027
55	0x3e39c049	0.18139757
56	0xbdee5bcc	-0.116386026
57	0x3e1622db	0.14661734
58	0xbd8bb46a	-0.068215206
59	0x3df2ed1d	0.11861632
60	0xbe29a0d3	-0.16565256
61	0xbdb7e9d8	-0.08980149
62	0x3d1d2dc9	0.038373742
63	0xbe3e4720	-0.1858182
64	0x3d06e7a9	0.032935772
65	0xbcbc6a0a	-0.022999782
66	0xbe27a577	-0.16371714
67	0x3d2414e1	0.040058974
68	0xbd9e09e0	-0.07716727
69	0x3e3ed76b	0.18636863
70	0x3e11a983	0.1422482
71	0xbd38dc31	-0.045131866
72	0xbd1d9d1a	-0.0384799
73	0xbe7f3cff	-0.24925612
74	0x3d9becfd	0.07613561
75	0xbdc90548	-0.098154604
76	0x3e1e8345	0.15479763
77	0x3c61dfab	0.013786237
78	0x3e14b298	0.14521253
79	0x3ddc70ae	0.107636794
80	0x3d2914c4	0.04127957
81	0x3de6fbbc	0.11278483
82	0xbd9ece45	-0.077541865
83	0x3e0c8583	0.13722806
84	0xbdf2e586	-0.11860184
85	0xbe2a9ffd	-0.16662593
86	0xbd575923	-0.05257524
87	0x3d448274	0.047975972
88	0xbe2918de	-0.16513392
89	0x3d7d2c29	0.061809693
90	0x3e0e2bc9	0.1388389
91	0x3d8fbcd9	0.07018442
92	0x3d5f81d3	0.05456717
93	0x3e12bc54	0.14329654
94	0xbd8dc9fa	-0.069232896
95	0xbe1117f7	-0.14169298
96	0x3dbe83cf	0.09302484
97	0xbdd952c3	-0.10611489
98	0x3dd41d42	0.10357143
99	0x3e07dea3	0.13268523
100	0xbe0c46b9	-0.13698854
101	0x3d2ab56a	0.041676916
102	0xbc0f1a73	-0.008734333
103	0xbe46933a	-0.193921
104	0xbd19183f	-0.03737664
105	0xbde66713	-0.112501286
106	0x3d70409f	0.058655377
107	0x3e2e2ba6	0.17008838
108	0xbe347d19	-0.17625846
109	0x3e292b63	0.16520457
110	0xbe5d2c05	-0.21598823
111	0x3dc733ef	0.097267024
112	0x3d756b44	0.05991675
113	0x3e18829f	0.14893578
114	0x3e622060	0.22082663
115	0xbe154015	-0.14575227
116	0xbe0bef9c	-0.13665622
117	0x3dc0c28e	0.09412108
118	0x3cd1759b	0.025568774
119	0x3e0f0cdd	0.1396975
120	0x3e4e0e4d	0.20122643
121	0xbe1c4947	-0.15262328
122	0xbe448046	-0.19189557
123	0x3e604076	0.2189959
124	0xbe2adaf8	-0.16685092
125	0xbe3ef89f	-0.18649529
126	0x3d6d7dd3	0.057981323
127	0x3d1dda7a	0.038538434
128	0xbdbea103	-0.09308054
129	0x3d899f25	0.067198075
130	0xbc9cceb8	-0.01914154
131	0xbe12fa4b	-0.14353292
132	0x3d80da91	0.06291688
133	0xbe131eec	-0.14367265
134	0x3e2fd148	0.17169678
135	0x3e113fde	0.1418452
136	0xbe65135f	-0.2237067
137	0xbc17c119	-0.009262347
138	0x3e132598	0.1436981
139	0xbe2bf0a4	-0.16791016
140	0x3e38aa0e	0.1803362
141	0x3cbf29c8	0.023335353
142	0xbe473d3e	-0.19456956
143	0x3dfd354a	0.1236368
144	0x3d85ac79	0.06527037
145	0xbe2ab69f	-0.16671227
146	0x3d7847f8	0.06061551
147	0xbcfa8806	-0.03058244
148	0x3e061d69	0.13097157
149	0x3dd77bc2	0.10521652
150	0x3b076386	0.0020658686
151	0xbdf1add8	-0.11800736
152	0xbd286ea0	-0.041121125
153	0x3dc97390	0.09836495
154	0xbdaa944a	-0.08329065
155	0x3d8183dc	0.06323978
156	0x3d70cfba	0.058791853
157	0x3d0b5240	0.034013987
158	0xbd6582e9	-0.05603305
159	0x3de29436	0.11063425
160	0xbde8a403	-0.11359408
161	0xbdecb232	-0.115574256
162	0xbe163245	-0.14667614
163	0xbe119a7b	-0.14219086
164	0xbdbeee5d	-0.09322808
165	0xbdffd2fb	-0.12491413
166	0x3dbff95a	0.09373732
167	0x3e154fa9	0.14581169
168	0xba55905c	-0.00081468164
169	0x3e03b911	0.12863566
170	0x3d9ce211	0.07660306
171	0xbbf07969	-0.007338692
172	0x3de7f091	0.11325181
173	0xbddffe56	-0.109371826
174	0x3da8da74	0.082447916
175	0x3e038c95	0.12846597
176	0x3a43646a	0.00074536225
177	0x3ce02f2a	0.02736624
178	0xbdd6fff2	-0.104980364
179	0xbde264d0	-0.11054385
180	0xbe16efd3	-0.14739923
181	0xbcff0d02	-0.031134132
182	0xbe31ee7e	-0.17376134
183	0x3c960985	0.018315086
184	0x3e36ee2d	0.17864294
185	0xbc58fab6	-0.013243368
186	0x3ce60194	0.028076924
187	0x3dc07a7a	0.093983606
188	0xbdc707db	-0.09718295
189	0x3e340c78	0.17582881
190	0x3de26198	0.11053771
191	0xbceb8bc4	-0.028753169
192	0xbc7b2d6c	-0.015330654
193	0xbe078c98	-0.13237226
194	0xbd3f4ab1	-0.04670209
195	0x3d085d23	0.033291947
196	0xbe22d89a	-0.1590294
197	0x3e0afe35	0.13573535
198	0x3cb45bbe	0.022016402
199	0xbd9069f2	-0.070514575
200	0xbc9ec020	-0.019378722
201	0xbcc3f623	-0.023921078
202	0x3d94df81	0.072691925
203	0xbd0744fc	-0.033024773
204	0xbe35d23a	-0.17755976
205	0xbcc8569d	-0.024455363
206	0x3e4b3010	0.19842553
207	0xbd804c6b	-0.062645756
208	0xbde5303f	-0.11190843
209	0xbe412962	-0.18863443
210	0x3e42dcc8	0.19029534
211	0xbc6cff49	-0.014465162
212	0x3c75c2d7	0.015000067
213	0xbe367fbd	-0.17822166
214	0x3e1da621	0.15395404
215	0x3e439795	0.19100793
216	0x3d91a88f	0.07112228
217	0xbdae0b9e	-0.084983096
218	0xbd0fb3f0	-0.03508371
219	0x3e3b91a2	0.18317273
220	0x3e130da6	0.14360675
221	0xbe676ecb	-0.22600858
222	0x3dde7d8a	0.108637884
223	0xbdc8c79a	-0.09803696
224	0xbc8e47ed	-0.017368281
225	0x3e0be4d3	0.13661508
226	0x3e272590	0.16322923
227	0xbddf14ab	-0.10892614
228	0xbcc9d7ef	-0.024639098
229	0x3dbc204a	0.09185846
230	0xbcd170d2	-0.025566492
231	0x3d3e9646	0.04653003
232	0xbb904e97	-0.0044039
233	0xbe44c922	-0.19217351
234	0x3dac4e12	0.08413328
235	0x3dc7938f	0.097449414
236	0xbe19a198	-0.1500305
237	0x3d99710b	0.07492264
238	0x3c7061d6	0.014671763
239	0x3d7a50fb	0.061112385
240	0xbdbf86e5	-0.09351901
241	0xbc8cb42b	-0.017175755
242	0xbe126eea	-0.14300123
243	0xbd01b483	-0.03166629
244	0x3dbfe4cc	0.093698114
245	0xbd21c822	-0.039497502
246	0xbdbecb93	-0.093161725
247	0xbd2473ef	-0.040149625
248	0x3e193fac	0.14965695
249	0x3e187d28	0.14891493
250	0x3d4804ff	0.04883289
251	0xbdc3c65e	-0.0955932
252	0xbdd7f100	-0.10544014
253	0x3e294ec4	0.16533953
254	0x3db38f71	0.08767594
255	0x3dfff7e5	0.12498454

features.0.bias f4 [64]
0	0xbc0d98aa	-0.008642355
1	0xbe0321d1	-0.12805869
2	0xbe22360c	-0.1584093
3	0x3e197d3c	0.1498918
4	0xbd322e42	-0.043501146
5	0xbd716860	-0.05893743
6	0xbd060ff3	-0.032730054
7	0x3ddc72af	0.10764062
8	0xbe06d159	-0.13165797
9	0x3e06f79c	0.13180393
10	0x3dafb063	0.08578565
11	0xbd22471a	-0.03961859
12	0xba38d9cf	-0.0007051499
13	0x3e1440e5	0.1447788
14	0x3e0aec1b	0.1356663
15	0xbe0180f8	-0.12646854
16	0x3e18b673	0.14913349
17	0x3e42c311	0.19019724
18	0xbd887e01	-0.06664658
19	0xbda4458d	-0.08021078
20	0x3d2f12b9	0.042742465
21	0x3ce0493d	0.027378673
22	0xbdd33026	-0.10311918
23	0x3e3d3ac7	0.18479453
24	0x3e0c6f91	0.13714434
25	0xbdc1ae86	-0.09457116
26	0x3dd1ddd9	0.10247392
27	0xbe1f4404	-0.1555329
28	0xbe2232c1	-0.15839674
29	0x3dda0e15	0.10647217
30	0xbd6a41f6	-0.05719181
31	0x3e27d880	0.16391182
32	0xbe365d71	-0.17809083
33	0xbd64faee	-0.055903368
34	0x3e272b2c	0.16325063
35	0x3de864f6	0.11347382
36	0x3d193831	0.037407104
37	0x3dda9f24	0.10674885
38	0xbe188ab7	-0.14896666
39	0xbd049197	-0.032365408
40	0xbdaf7156	-0.08566539
41	0xbe120032	-0.14257887
42	0xbbe23b55	-0.0069040456
43	0xbdf7c8c8	-0.12098843
44	0x3d5f42ad	0.054506946
45	0xbe1bd693	-0.15218572
46	0xbdaf14ba	-0.08548875
47	0x3dc826ea	0.09773047
48	0x3dbb22c4	0.091374904
49	0xbd2d8185	-0.042359848
50	0x3e1e8b0a	0.15482727
51	0xbe209958	-0.15683496
52	0xbc606afe	-0.013697384
53	0x3d555aa2	0.052088387
54	0xbd7fa790	-0.06241566
55	0xbd59d37d	-0.053180207
56	0x3b65a78c	0.0035042493
57	0x3e1d1845	0.1534129
58	0x3d15e1d6	0.036592327
59	0x3c0885d3	0.008332687
60	0x3c9333c5	0.017969022
61	0xbe3ce4aa	-0.18446603
62	0xbd64aebe	-0.05583071
63	0xbe18a3df	-0.14906262

features.1.weight f4 [64]
0	0x3f7e3be2	0.99310124
1	0x3f6b5cc5	0.9193843
2	0x3f7e8be0	0.9943218
3	0x3f851b38	1.0398932
4	0x3f90d118	1.131381
5	0x3f81e9d9	1.014949
6	0x3f7c571b	0.9857041
7	0x3f81ba66	1.0135009
8	0x3f82096a	1.0159123
9	0x3f6f5da3	0.93502253
10	0x3f72f710	0.9490824
11	0x3f7dafc4	0.9909632
12	0x3f903997	1.1267575
13	0x3f74178e	0.9534844
14	0x3f7513f6	0.9573358
15	0x3f871626	1.0553634
16	0x3f928186	1.1445777
17	0x3f850bdf	1.0394248
18	0x3f748f5b	0.95531243
19	0x3f797a2f	0.9745206
20	0x3f616811	0.8804942
21	0x3f6fc541	0.9366036
22	0x3f771c9c	0.9652803
23	0x3f78c1dc	0.97170806
24	0x3f7ea913	0.99476737
25	0x3f6feb52	0.93718445
26	0x3f6cd93d	0.9251898
27	0x3f794606	0.9737247
28	0x3f69769d	0.91196615
29	0x3f7407d7	0.9532446
30	0x3f88169c	1.06319
31	0x3f78d47c	0.97199225
32	0x3f8cfd0c	1.1014724
33	0x3f86d120	1.053257
34	0x3f76fb8d	0.96477586
35	0x3f6fdf73	0.9370033
36	0x3f764cee	0.96211135
37	0x3f853067	1.0405396
38	0x3f8274ae	1.0191858
39	0x3f6956af	0.91147894
40	0x3f81fc8e	1.0155199
41	0x3f8a145d	1.0787464
42	0x3f8522bc	1.0401225
43	0x3f5a2140	0.85206985
44	0x3f6a52ab	0.9153239
45	0x3f80b21a	1.0054352
46	0x3f86cad8	1.0530653
47	0x3f8703c5	1.0548025
48	0x3f807be5	1.003781
49	0x3f80dee9	1.0068027
50	0x3f74b0dd	0.9558237
51	0x3f858580	1.0431366
52	0x3f880426	1.0626266
53	0x3f685dc8	0.907681
54	0x3f7aa6d1	0.9791079
55	0x3f6d23b7	0.9263262
56	0x3f7e82d0	0.99418354
57	0x3f79c674	0.9756844
58	0x3f647798	0.89244986
59	0x3f83ea01	1.0305787
60	0x3f637e88	0.88864946
61	0x3f857574	1.0426469
62	0x3f7d2424	0.9888327
63	0x3f898b9d	1.0745732

features.1.bias f4 [64]
0	0xbca9dfae	-0.020736542
1	0xbd4966db	-0.049170356
2	0xbc813ae2	-0.015775148
3	0x3e1236a9	0.14278664
4	0xbd69ba30	-0.057062328
5	0x3db5e386	0.08881287
6	0x3d375ab3	0.044764232
7	0x3d779af0	0.060450494
8	0xbe19941e	-0.14997908
9	0x3b470325	0.0030366865
10	0xbde37454	-0.11106172
11	0x3d304c09	0.043041263
12	0x3d9fd766	0.07804756
13	0x3e4120ad	0.18860121
14	0xbd9cbca1	-0.076531656
15	0x3d892ceb	0.066980205
16	0xbc204a94	-0.009783406
17	0x3e68f370	0.22749114
18	0xbdf70214	-0.12060943
19	0xbdec4a28	-0.11537582
20	0xbe4ac819	-0.19802894
21	0xbd0c4ac0	-0.034250975
22	0xbdd10ba8	-0.102073014
23	0xbd8429cf	-0.06453287
24	0x3e96db2a	0.29464084
25	0xbe01ea2f	-0.1268699
26	0xbda6399e	-0.08116458
27	0xbd68c134	-0.056824878
28	0xbdd21de9	-0.10259611
29	0xbdfd3676	-0.12363903
30	0x3e4dc860	0.20095968
31	0xbd241481	-0.040058617
32	0x3d72f46f	0.05931514
33	0x3e21b4b0	0.15791583
34	0xbce3836d	-0.02777263
35	0xbd924f94	-0.071440846
36	0x3dc3b8c2	0.09556724
37	0xbdbfb1d6	-0.093600914
38	0x3db4135a	0.087927535
39	0xbd9efde2	-0.07763268
40	0x3e13bf71	0.14428498
41	0xbcf17ba2	-0.029477898
42	0x3dba3d63	0.0909374
43	0xbe43af29	-0.19109787
44	0xbd85469c	-0.06507608
45	0xbcd0dc05	-0.025495538
46	0x3de129ce	0.10994302
47	0x3dac54c1	0.08414603
48	0xbd87cbf8	-0.06630701
49	0x3d80688f	0.06269943
50	0xbd68367d	-0.05669259
51	0x3de177c1	0.11009169
52	0x3e0b74a6	0.13618717
53	0xbe226a46	-0.15860853
54	0x3c5fc035	0.013656666
55	0xbe0c2175	-0.13684638
56	0xbd965429	-0.07340271
57	0xbde6bbf8	-0.11266321
58	0xbd9745a9	-0.073863335
59	0x3e36f6bb	0.17867558
60	0xbe16d3f3	-0.1472929
61	0x3dfee3b2	0.12445773
62	0x3d9431ce	0.07236062
63	0x3dcc5270	0.09976661

features.1.running_mean f4 [64]
0	0x00000000	0.0
1	0x00000000	0.0
2	0x00000000	0.0
3	0x00000000	0.0
4	0x00000000	0.0
5	0x00000000	0.0
6	0x00000000	0.0
7	0x00000000	0.0
8	0x00000000	0.0
9	0x00000000	0.0
10	0x00000000	0.0
11	0x00000000	0.0
12	0x00000000	0.0
13	0x00000000	0.0
14	0x00000000	0.0
15	0x00000000	0.0
16	0x00000000	0.0
17	0x00000000	0.0
18	0x00000000	0.0
19	0x00000000	0.0
20	0x00000000	0.0
21	0x00000000	0.0
22	0x00000000	0.0
23	0x00000000	0.0
24	0x00000000	0.0
25	0x00000000	0.0
26	0x00000000	0.0
27	0x00000000	0.0
28	0x00000000	0.0
29	0x00000000	0.0
30	0x00000000	0.0
31	0x00000000	0.0
32	0x00000000	0.0
33	0x00000000	0.0
34	0x00000000	0.0
35	0x00000000	0.0
36	0x00000000	0.0
37	0x00000000	0.0
38	0x00000000	0.0
39	0x00000000	0.0
40	0x00000000	0.0
41	0x00000000	0.0
42	0x00000000	0.0
43	0x00000000	0.0
44	0x00000000	0.0
45	0x00000000	0.0
46	0x00000000	0.0
47	0x00000000	0.0
48	0x00000000	0.0
49	0x00000000	0.0
50	0x00000000	0.0
51	0x00000000	0.0
52	0x00000000	0.0
53	0x00000000	0.0
54	0x00000000	0.0
55	0x00000000	0.0
56	0x00000000	0.0
57	0x00000000	0.0
58	0x00000000	0.0
59	0x00000000	0.0
60	0x00000000	0.0
61	0x00000000	0.0
62	0x00000000	0.0
63	0x00000000	0.0

features.1.running_var f4 [64]
0	0x3f800000	1.0
1	0x3f800000	1.0
2	0x3f800000	1.0
3	0x3f800000	1.0
4	0x3f800000	1.0
5	0x3f800000	1.0
6	0x3f800000	1.0
7	0x3f800000	1.0
8	0x3f800000	1.0
9	0x3f800000	1.0
10	0x3f800000	1.0
11	0x3f800000	1.0
12	0x3f800000	1.0
13	0x3f800000	1.0
14	0x3f800000	1.0
15	0x3f800000	1.0
16	0x3f800000	1.0
17	0x3f800000	1.0
18	0x3f800000	1.0
19	0x3f800000	1.0
20	0x3f800000	1.0
21	0x3f800000	1.0
22	0x3f800000	1.0
23	0x3f800000	1.0
24	0x3f800000	1.0
25	0x3f800000	1.0
26	0x3f800000	1.0
27	0x3f800000	1.0
28	0x3f800000	1.0
29	0x3f800000	1.0
30	0x3f800000	1.0
31	0x3f800000	1.0
32	0x3f800000	1.0
33	0x3f800000	1.0
34	0x3f800000	1.0
35	0x3f800000	1.0
36	0x3f800000	1.0
37	0x3f800000	1.0
38	0x3f800000	1.0
39	0x3f800000	1.0
40	0x3f800000	1.0
41	0x3f800000	1.0
42	0x3f800000	1.0
43	0x3f800000	1.0
44	0x3f800000	1.0
45	0x3f800000	1.0
46	0x3f800000	1.0
47	0x3f800000	1.0
48	0x3f800000	1.0
49	0x3f800000	1.0
50	0x3f800000	1.0
51	0x3f800000	1.0
52	0x3f800000	1.0
53	0x3f800000	1.0
54	0x3f800000	1.0
55	0x3f800000	1.0
56	0x3f800000	1.0
57	0x3f800000	1.0
58	0x3f800000	1.0
59	0x3f800000	1.0
60	0x3f800000	1.0
61	0x3f800000	1.0
62	0x3f800000	1.0
63	0x3f800000	1.0

features.4.weight f4 [64, 64, 3, 3]
0	0x3c058f15	0.008151789
1	0x3d34708a	0.044052638
2	0x3c9ae37f	0.018907307
3	0xbcfb3597	-0.030665202
4	0xbb3084a2	-0.0026934524
5	0xbcfcb124	-0.030846186
6	0x3c7b6db4	0.0153459795
7	0xbd60e129	-0.05490223
8	0xbcfe567b	-0.031047096
9	0xbca905e5	-0.020632694
10	0xbcc65bd9	-0.024213718
11	0x3c367597	0.011136434
12	0xbc89e976	-0.016834956
13	0xbb9a4f4a	-0.004709159
14	0xbce811b4	-0.028328754
15	0xbc9301b3	-0.017945146
16	0xbc09a7bd	-0.008401808
17	0x3bea8bef	0.0071577947
18	0x3d05860c	0.03259854
19	0x3c634516	0.013871452
20	0xbdc0ff07	-0.094236426
21	0x3cab19f5	0.0208864
22	0xbd355769	-0.044272814
23	0xbd6c7779	-0.057731126
24	0x3cec21eb	0.028824767
25	0x3c9d94ab	0.01923593
26	0xbd3905a9	-0.045171414
27	0x3cd1bb43	0.025601989
28	0xbd1e03cb	-0.038577836
29	0x3c067eda	0.008208955
30	0x3c970af1	0.018437834
31	0xbc95f759	-0.018306421
32	0xbbe79cd0	-0.007068254
33	0xbc6e34e9	-0.014538982
34	0x3d1228eb	0.035683554
35	0x3c90397f	0.017605541
36	0x3b977168	0.0046216734
37	0xbd007fd4	-0.031371906
38	0xbc03928b	-0.008030544
39	0x3cd62f78	0.026145682
40	0x3d6b4876	0.05744215
41	0x3d0fb903	0.03508855
42	0x3c7150c7	0.0147287315
43	0x3d753943	0.059869062
44	0x3d38365a	0.04497371
45	0xbd03c5a0	-0.03217089
46	0xbd28e898	-0.041237444
47	0xbd329a01	-0.0436039
48	0x3cc04e79	0.023474919
49	0xbd0d5552	-0.034505196
50	0x3b354c7f	0.0027664003
51	0xbd01ebb8	-0.03171894
52	0xba5c1ae2	-0.000839634
53	0x3bd67381	0.006544531
54	0x3b10ef9d	0.0022115477
55	0xbbf6d046	-0.0075321523
56	0x3ccf5918	0.025311038
57	0xbcc855fd	-0.024455065
58	0xbd134f24	-0.035964146
59	0xbd2f0b4a	-0.042735375
60	0x3cb6c148	0.02230896
61	0x3c402b51	0.011729077
62	0x3c546802	0.0129642505
63	0x3c851153	0.016243612
64	0x3c559db2	0.013038086
65	0xbcc3ab73	-0.023885464
66	0xbbe75f53	-0.007060924
67	0x3d4ca184	0.04995872
68	0x3b8d09e7	0.004304159
69	0xbd190113	-0.03735454
70	0xbcb6fb01	-0.022336485
71	0x3c38b71d	0.011274126
72	0x3d4c7316	0.049914442
73	0xbc969397	-0.018380923
74	0xbc8ae76b	-0.016956052
75	0x3cc354ee	0.023844209
76	0xbd314fe3	-0.043289077
77	0xba97dc57	-0.0011586052
78	0x3c9bcf3b	0.019019714
79	0x3d11a781	0.035560135
80	0x3bddfcca	0.0067745196
81	0x3a2fc927	0.0006705694
82	0x3c74ba72	0.01493703
83	0xbc19aa7e	-0.009379027
84	0x3a439fbe	0.0007462463
85	0xbcf8e70c	-0.03038361
86	0xb9ca71f4	-0.00038613344
87	0x3d00d63c	0.03145431
88	0x3cba2804	0.022724159
89	0xbd25787b	-0.040398102
90	0xbd2f6393	-0.04281957
91	0xbd0ed654	-0.034872368
92	0x3bfda104	0.007740142
93	0xbd1b98e6	-0.037987612
94	0xbc9f959d	-0.01948052
95	0xbc781169	-0.01514087
96	0xbaf6e66e	-0.0018836984
97	0x3d1c2697	0.03812274
98	0x3d3f9d6a	0.04678098
99	0xbccf2e03	-0.025290495
100	0x3cee832e	0.029115286
101	0x3c20a556	0.009805044
102	0xbc63c899	-0.013902807
103	0xbc90bdfc	-0.017668717
104	0x3ca9aea8	0.020713165
105	0xbc8fb5bf	-0.017542718
106	0xbc160954	-0.009157497
107	0x3869f77f	5.5782028e-05
108	0x3c5bca99	0.013415002
109	0xbd1e19e4	-0.03859891
110	0x3cdb7187	0.026787532
111	0x3be4ef33	0.0069865226
112	0x3a0e09dc	0.0005418339
113	0x3d84c3f0	0.064826846
114	0x3cb7445d	0.022371465
115	0x3d1d380e	0.038383536
116	0x3d83bfc3	0.0643306
117	0x3c242cab	0.010020415
118	0xbc967d0a	-0.01837017
119	0xbd4b2e00	-0.049604416
120	0xbccdc7af	-0.02511963
121	0x3b8422fd	0.0040324912
122	0xbd012798	-0.0315319
123	0x3d32c6d3	0.043646645
124	0x3d1250a2	0.03572143
125	0x3c5539e8	0.013014294
126	0x3c497636	0.01229625
127	0xbca0477e	-0.01956534
128	0x3c0ae344	0.008477036
129	0xbca5fd68	-0.020262435
130	0x3d187ec2	0.03723026
131	0x3cb19f07	0.021682275
132	0x3cd87d7b	0.026427021
133	0x3cb88bde	0.022527631
134	0x3cb39717	0.021922631
135	0xbdb7cbb6	-0.08974402
136	0xbd87c795	-0.06629864
137	0xbcbf6f26	-0.02336843
138	0xbc613a01	-0.013746739
139	0x3ca3194c	0.019909523
140	0xbc1c33ad	-0.009533805
141	0xbc56d332	-0.013111876
142	0x3d55a067	0.052154925
143	0x3c7a166b	0.015264134
144	0x3caaec70	0.020864695
145	0x3ca150f3	0.01969192
146	0x3cff8c30	0.031194776
147	0x3d8b599c	0.06804201
148	0x3d9beb4a	0.07613237
149	0x3d3ed04b	0.046585362
150	0x3c3ebc51	0.011641578
151	0x3d1e1755	0.03859647
152	0xbced4885	-0.028965244
153	0xbd47a2ec	-0.04873936
154	0xbc1e561f	-0.009664088
155	0xbb8d8edd	-0.004320009
156	0xbbcf4dfc	-0.006326435
157	0xbcfb153d	-0.030649776
158	0xbd579b03	-0.052638065
159	0x3d0c65fd	0.03427695
160	0x3c3c9a1a	0.01151135
161	0x3c0297e0	0.00797078
162	0x3cc7d75c	0.024394684
163	0xbd4aa163	-0.049470317
164	0x3a4653f0	0.0007565608
165	0xbc3be695	-0.011468549
166	0xbd02d4ec	-0.03194134
167	0xbd6fe7e5	-0.05857076
168	0x3b2b4612	0.0026134294
169	0x3b14af51	0.0022687505
170	0x3d40b9b6	0.047052108
171	0x3d0aba8c	0.03386931
172	0x3c33e322	0.010979446
173	0xbcd2d486	-0.025736105
174	0x3d0b921e	0.034074895
175	0x3caf3b1f	0.021390496
176	0x3cb416d3	0.02198354
177	0xbca68ae7	-0.020329906
178	0x3bf3cbfe	0.0074400892
179	0x3d1330c6	0.035935186
180	0xbbb7e22e	-0.0056116795
181	0xbc3e25b7	-0.011605672
182	0x3d0e6f7c	0.03477429
183	0x3c167647	0.009183473
184	0x3d469c59	0.04848895
185	0xbca5007e	-0.020141836
186	0xbbcb7204	-0.00620866
187	0x3b2612b4	0.0025340738
188	0x3d0d3df9	0.03448293
189	0x3b3eb516	0.0029099635
190	0x3c48bd1a	0.012252117
191	0xbb74febe	-0.0037383283
192	0xbac1c4ef	-0.0014783422
193	0xbced2521	-0.028948369
194	0xbb84ab3e	-0.004048734
195	0xbc647ff8	-0.013946526
196	0x3c74627c	0.014916059
197	0x3bd60943	0.006531866
198	0xbbf43967	-0.007453132
199	0xbcc13b0f	-0.023587732
200	0xbd55d237	-0.05220243
201	0x3d33d74a	0.043906488
202	0xbc3ff1ac	-0.011715334
203	0xbb56d8f5	-0.0032783125
204	0xbbd89700	-0.0066097975
205	0xbc5be716	-0.013421794
206	0x3b4efebb	0.0031584937
207	0x3d8caf40	0.06869364
208	0xbc887577	-0.016657574
209	0x3d29cd3c	0.041455492
210	0xbaff878a	-0.001949535
211	0xbd2528a6	-0.04032197
212	0xbce27282	-0.027642492
213	0x3ccfda69	0.0253727
214	0xbcaffa8f	-0.02148178
215	0x3ba0aaa1	0.004903153
216	0x3d5d1932	0.053979106
217	0xbcc5b222	-0.024132792
218	0xbc34da32	-0.01103835
219	0x3d2362f4	0.03988929
220	0x3d419a0e	0.04726606
221	0xbcec17e8	-0.028819993
222	0xba39ed1a	-0.0007092521
223	0xbc9aa099	-0.018875407
224	0xbbd6be3a	-0.0065534385
225	0x3caaf2da	0.020867754
226	0x3c890c9e	0.01672965
227	0x3cd576a8	0.026057556
228	0xbd1e1d32	-0.03860206
229	0x3c4aa0f0	0.012367472
230	0xbcafcd64	-0.021460243
231	0xbc14a7e2	-0.0090732295
232	0x3d3739c0	0.04473281
233	0xbc71ae0f	-0.014750971
234	0xbd1a8352	-0.037722893
235	0xbc14580f	-0.009054198
236	0x3caa2195	0.020767966
237	0xbd511d43	-0.051053297
238	0xbd181d84	-0.037137523
239	0x3cf88ff5	0.030342082
240	0xbd1d4bec	-0.038402483
241	0x3cfdb6f1	0.030971022
242	0xbc7cb4b0	-0.015423939
243	0xbd3c404b	-0.045959752
244	0xbd494a7c	-0.0491433
245	0x3a6af899	0.00089634355
246	0xbce0802b	-0.027404865
247	0x3c3f8fe5	0.011692022
248	0x3bc131eb	0.0058958433
249	0xbc4d273e	-0.012521563
250	0xbbc89ff5	-0.006122584
251	0x3d11ebe0	0.03562534
252	0x3d1b4d5c	0.037915573
253	0xba18b515	-0.0005825323
254	0xbcd806f0	-0.026370496
255	0x3c94da40	0.018170476

features.4.bias f4 [64]
0	0xbcc16e68	-0.023612216
1	0x3bbb1e4d	0.0057103992
2	0xbc29472d	-0.010331911
3	0x3c0ec5a7	0.008714116
4	0x3ce1ae2e	0.027548876
5	0xbcb9da50	-0.022687107
6	0xbd24bfa7	-0.040221836
7	0xbc0871e9	-0.00832794
8	0x3cca3949	0.024685519
9	0xbd0f41d8	-0.034974903
10	0xbc30f0a8	-0.010799564
11	0x3b40a008	0.002939226
12	0x39ee9e1c	0.00045512698
13	0x3cc244b1	0.023714395
14	0x3caf1697	0.021373076
15	0x3c925776	0.01786397
16	0x3cfb7a4f	0.03069797
17	0x3ca39afa	0.01997136
18	0xbc927d4b	-0.01788201
19	0x3cabf18b	0.0209892
20	0xbc1b90d0	-0.009494975
21	0x3c2d589e	0.01058021
22	0x3d02f2be	0.03196978
23	0xbd07470c	-0.03302674
24	0xbcfad951	-0.030621203
25	0xbb8a017c	-0.0042116027
26	0x3cdba83d	0.02681362
27	0xbce81e7f	-0.028334854
28	0x3c03a8f9	0.008035892
29	0x3bab1c45	0.005221876
30	0x3b26e2e7	0.0025464834
31	0x3bee295b	0.0072681135
32	0x3cd903ac	0.026491009
33	0x3cedac75	0.029012898
34	0x3cf594dc	0.029978208
35	0x3d25ccf2	0.040478654
36	0xbceb192c	-0.028698526
37	0x3d534d27	0.05158725
38	0xbcc04828	-0.023471907
39	0xbc03f244	-0.008053366
40	0x3b395aa2	0.002828278
41	0xbcb05a17	-0.021527333
42	0xbbf185a7	-0.007370669
43	0x3be1b836	0.0068884147
44	0x3c798296	0.015228888
45	0x3c33ecd4	0.010981757
46	0xbcd9e318	-0.026597545
47	0xbcd67a6e	-0.026181426
48	0x3c18efe7	0.009334541
49	0x3c2dd27b	0.0106092645
50	0x3ca24d56	0.019812267
51	0x3d1a9c31	0.037746612
52	0xbc9e5103	-0.019325739
53	0x3d007632	0.03136272
54	0x3cab371c	0.020900302
55	0xbc7e08db	-0.015505041
56	0x3c8f36dc	0.017482214
57	0x3c9aba3a	0.018887628
58	0x3c9b6d10	0.018972903
59	0xbcf75ab7	-0.030194623
60	0x3d1458dd	0.03621756
61	0x3bb54904	0.005532386
62	0xbbf1e082	-0.0073814997
63	0xbd06e94b	-0.03293733

features.5.weight f4 [64]
0	0x3f79813e	0.9746283
1	0x3f829c98	1.0204039
2	0x3f869aea	1.0516026
3	0x3f76597c	0.9623029
4	0x3f80e15e	1.0068777
5	0x3f8738a5	1.0564162
6	0x3f78b1fc	0.9714658
7	0x3f711320	0.9416981
8	0x3f798f5d	0.9748438
9	0x3f838917	1.0276212
10	0x3f7e2e9a	0.9928986
11	0x3f7cefa9	0.9880319
12	0x3f6ddce5	0.92915183
13	0x3f83a62a	1.0285084
14	0x3f8674e9	1.0504428
15	0x3f82525d	1.0181385
16	0x3f7783f6	0.9668573
17	0x3f78bb02	0.9716035
18	0x3f87ce95	1.0609919
19	0x3f7ffc2a	0.99994147
20	0x3f7aa9aa	0.97915137
21	0x3f719ce1	0.94380003
22	0x3f7b42f6	0.9814905
23	0x3f88a532	1.0675414
24	0x3f7b4562	0.98152745
25	0x3f7e9ff4	0.9946282
26	0x3f7e1691	0.99253184
27	0x3f81f18f	1.0151843
28	0x3f83030f	1.0235308
29	0x3f7a7b23	0.9784414
30	0x3f852fea	1.0405247
31	0x3f7f491b	0.99720925
32	0x3f77f617	0.9685988
33	0x3f81f5d8	1.015315
34	0x3f7d0380	0.98833466
35	0x3f8408d6	1.0315197
36	0x3f73f740	0.9529915
37	0x3f78b70d	0.97154313
38	0x3f8225e5	1.0167814
39	0x3f7a4d26	0.9777397
40	0x3f7bc1ff	0.9834289
41	0x3f700dd9	0.9377113
42	0x3f87cdbc	1.060966
43	0x3f7d0df3	0.9884941
44	0x3f7f1bd6	0.9965185
45	0x3f845340	1.0337906
46	0x3f7d148f	0.98859495
47	0x3f848d10	1.0355549
48	0x3f7f3e1d	0.9970415
49	0x3f86b0e9	1.0522739
50	0x3f839efe	1.0282896
51	0x3f804ae5	1.0022856
52	0x3f8177c4	1.0114675
53	0x3f81304c	1.0092864
54	0x3f7b3142	0.98122036
55	0x3f768eec	0.9631183
56	0x3f7a9928	0.9788995
57	0x3f844a76	1.0335224
58	0x3f79175b	0.9730126
59	0x3f79f487	0.97638744
60	0x3f781267	0.9690308
61	0x3f86b53f	1.0524062
62	0x3f85e46a	1.0460331
63	0x3f828ec4	1.0199819

features.5.bias f4 [64]
0	0xbd4e4b5c	-0.050364837
1	0x3de7e498	0.11322898
2	0x3c2523c4	0.010079328
3	0xbc903de3	-0.017607635
4	0xbd5af220	-0.053453565
5	0xbcfc88b0	-0.030826896
6	0xbde7815a	-0.11303969
7	0xbdf7fe72	-0.121090785
8	0xbcf3bf9a	-0.029754449
9	0xbce49e7e	-0.027907606
10	0xbd8dffd5	-0.06933562
11	0xbdc7adb3	-0.09749927
12	0xbdf79dbc	-0.12090632
13	0xbdc976bd	-0.09837101
14	0xbd45f096	-0.048325144
15	0xbd95ea0d	-0.07320032
16	0xbc91f02c	-0.017814718
17	0x3d91a122	0.07110812
18	0xbda41729	-0.0801223
19	0xbd07cfbd	-0.0331571
20	0xbcba21c5	-0.02272118
21	0xbd777809	-0.06041721
22	0xbb11e929	-0.0022264218
23	0xbd98330e	-0.07431613
24	0xbcafa7ec	-0.021442376
25	0xbcc760dd	-0.02433818
26	0xbd032131	-0.032014076
27	0xbdb14880	-0.086564064
28	0xbe0c4490	-0.1369803
29	0xba96b689	-0.0011498492
30	0x3d84e72a	0.064894035
31	0xbd0e5621	-0.034750108
32	0xbdc41d50	-0.095759034
33	0xbdc85f35	-0.09783784
34	0xbd1f87fb	-0.03894804
35	0xbe083d80	-0.1330471
36	0xbdc27c81	-0.094964035
37	0xbda2e9ad	-0.07954726
38	0xbd8c731e	-0.06857894
39	0xbd31946f	-0.043354448
40	0xbd51c8b4	-0.051216796
41	0xbd247ea0	-0.04015982
42	0xbd4a33c3	-0.04936577
43	0xbd114180	-0.035462856
44	0xbdc6d08c	-0.09707746
45	0xbdf3e24c	-0.11908397
46	0xbd6398e7	-0.05556574
47	0xbd2c4ef3	-0.04206748
48	0xbddf0eea	-0.108915165
49	0xbde237a8	-0.11045772
50	0xbdbe8b63	-0.0930393
51	0xbcab02e0	-0.020875394
52	0xbe11e5e2	-0.1424785
53	0xbde162e9	-0.11005194
54	0xbd971525	-0.0737708
55	0xbd6d0b61	-0.05787218
56	0xbd91ad0f	-0.071130864
57	0xbd42cdb3	-0.04755945
58	0xbdb8041c	-0.08985159
59	0xbd61705a	-0.055038787
60	0xbd50ff3b	-0.051024657
61	0xbc79f33a	-0.015255744
62	0xbdd9af9c	-0.10629198
63	0xbdd3d374	-0.10343066

features.5.running_mean f4 [64]
0	0x00000000	0.0
1	0x00000000	0.0
2	0x00000000	0.0
3	0x00000000	0.0
4	0x00000000	0.0
5	0x00000000	0.0
6	0x00000000	0.0
7	0x00000000	0.0
8	0x00000000	0.0
9	0x00000000	0.0
10	0x00000000	0.0
11	0x00000000	0.0
12	0x00000000	0.0
13	0x00000000	0.0
14	0x00000000	0.0
15	0x00000000	0.0
16	0x00000000	0.0
17	0x00000000	0.0
18	0x00000000	0.0
19	0x00000000	0.0
20	0x00000000	0.0
21	0x00000000	0.0
22	0x00000000	0.0
23	0x00000000	0.0
24	0x00000000	0.0
25	0x00000000	0.0
26	0x00000000	0.0
27	0x00000000	0.0
28	0x00000000	0.0
29	0x00000000	0.0
30	0x00000000	0.0
31	0x00000000	0.0
32	0x00000000	0.0
33	0x00000000	0.0
34	0x00000000	0.0
35	0x00000000	0.0
36	0x00000000	0.0
37	0x00000000	0.0
38	0x00000000	0.0
39	0x00000000	0.0
40	0x00000000	0.0
41	0x00000000	0.0
42	0x00000000	0.0
43	0x00000000	0.0
44	0x00000000	0.0
45	0x00000000	0.0
46	0x00000000	0.0
47	0x00000000	0.0
48	0x00000000	0.0
49	0x00000000	0.0
50	0x00000000	0.0
51	0x00000000	0.0
52	0x00000000	0.0
53	0x00000000	0.0
54	0x00000000	0.0
55	0x00000000	0.0
56	0x00000000	0.0
57	0x00000000	0.0
58	0x00000000	0.0
59	0x00000000	0.0
60	0x00000000	0.0
61	0x00000000	0.0
62	0x00000000	0.0
63	0x00000000	0.0

features.5.running_var f4 [64]
0	0x3f800000	1.0
1	0x3f800000	1.0
2	0x3f800000	1.0
3	0x3f800000	1.0
4	0x3f800000	1.0
5	0x3f800000	1.0
6	0x3f800000	1.0
7	0x3f800000	1.0
8	0x3f800000	1.0
9	0x3f800000	1.0
10	0x3f800000	1.0
11	0x3f800000	1.0
12	0x3f800000	1.0
13	0x3f800000	1.0
14	0x3f800000	1.0
15	0x3f800000	1.0
16	0x3f800000	1.0
17	0x3f800000	1.0
18	0x3f800000	1.0
19	0x3f800000	1.0
20	0x3f800000	1.0
21	0x3f800000	1.0
22	0x3f800000	1.0
23	0x3f800000	1.0
24	0x3f800000	1.0
25	0x3f800000	1.0
26	0x3f800000	1.0
27	0x3f800000	1.0
28	0x3f800000	1.0
29	0x3f800000	1.0
30	0x3f800000	1.0
31	0x3f800000	1.0
32	0x3f800000	1.0
33	0x3f800000	1.0
34	0x3f800000	1.0
35	0x3f800000	1.0
36	0x3f800000	1.0
37	0x3f800000	1.0
38	0x3f800000	1.0
39	0x3f800000	1.0
40	0x3f800000	1.0
41	0x3f800000	1.0
42	0x3f800000	1.0
43	0x3f800000	1.0
44	0x3f800000	1.0
45	0x3f800000	1.0
46	0x3f800000	1.0
47	0x3f800000	1.0
48	0x3f800000	1.0
49	0x3f800000	1.0
50	0x3f800000	1.0
51	0x3f800000	1.0
52	0x3f800000	1.0
53	0x3f800000	1.0
54	0x3f800000	1.0
55	0x3f800000	1.0
56	0x3f800000	1.0
57	0x3f800000	1.0
58	0x3f800000	1.0
59	0x3f800000	1.0
60	0x3f800000	1.0
61	0x3f800000	1.0
62	0x3f800000	1.0
63	0x3f800000	1.0

features.8.weight f4 [64, 64, 3, 3]
0	0xbd38847a	-0.045048214
1	0x3cf2233d	0.029557819
2	0xbce6a009	-0.028152483
3	0xbd6c892a	-0.057747997
4	0xbc86b71a	-0.016444732
5	0x3c150317	0.009094975
6	0x3c342a4b	0.010996412
7	0x3b408c11	0.002938036
8	0xbace435c	-0.0015736627
9	0xbcb6bdb4	-0.022307254
10	0xbd5c8918	-0.05384168
11	0x3c1f5856	0.009725651
12	0xbd8d38c4	-0.06895593
13	0xbd10d26f	-0.035356935
14	0xbc89a6d7	-0.016803188
15	0x3c923e8f	0.017852096
16	0x3cc66ef8	0.024222836
17	0x3b4ea3e1	0.0031530785
18	0xbc18f3a4	-0.009335432
19	0x3c9af042	0.018913392
20	0x3c9d2b76	0.019185763
21	0x3bc18306	0.005905512
22	0x3ce10a04	0.027470596
23	0x3cb7d550	0.022440583
24	0xbda1b173	-0.07895174
25	0xbd8b87f8	-0.06813043
26	0xbd009b3e	-0.03139805
27	0xbcae84e6	-0.021303605
28	0x3adbc56c	0.001676721
29	0x3d0149ff	0.03156471
30	0x3c6d7ea9	0.01449553
31	0x3ca232fe	0.019799706
32	0x3cb215d2	0.02173892
33	0xbd3ac6db	-0.0455998
34	0x3ca3ffc8	0.020019427
35	0x3d530745	0.051520605
36	0xbcc4fe1c	-0.02404695
37	0xbda53a6f	-0.08067786
38	0xbd153199	-0.036424253
39	0x3ba3cf85	0.0049991035
40	0xbd010121	-0.031495217
41	0xbce21c23	-0.027601307
42	0x3c05a2ac	0.00815646
43	0x3c4eadd9	0.012614691
44	0x3c8a7a90	0.016904145
45	0xbcba02b0	-0.02270636
46	0x3d2511da	0.040300228
47	0x3d6dd375	0.05806299
48	0x3cdfffea	0.027343709
49	0x3d91bc13	0.071159504
50	0x3d4c343d	0.049854506
51	0x39839576	0.00025097624
52	0x3d215548	0.03938797
53	0xbab471eb	-0.001376686
54	0xbd1ccb13	-0.038279604
55	0xbae10b0a	-0.0017169428
56	0xbca17dc3	-0.019713288
57	0xbc731b63	-0.0148380725
58	0xbd14d8d4	-0.036339596
59	0xbce9a2c1	-0.02851999
60	0xbbfccdbf	-0.0077149565
61	0x3c651eca	0.0139843915
62	0xbcca42b8	-0.024690017
63	0xbb897aba	-0.0041955383
64	0x3d30b73d	0.0431435
65	0xbc6b4704	-0.014360193
66	0xbcd768c1	-0.026295068
67	0x3c342b73	0.010996687
68	0xbc6a5d37	-0.014304451
69	0x3ba85777	0.0051373797
70	0xbd0f29db	-0.034952026
71	0x3ce3e8cc	0.027820967
72	0xbd0a77d5	-0.033805687
73	0xbd0ab75e	-0.03386628
74	0x3d044555	0.032292683
75	0xbd7029e9	-0.05863372
76	0x3c251e33	0.010078001
77	0x3c182744	0.009286705
78	0xbd609e00	-0.05483818
79	0x3cb99a4a	0.022656579
80	0x3c2406aa	0.010011354
81	0xbd197786	-0.037467502
82	0x3cd329a3	0.02577669
83	0xbcb6cf60	-0.022315681
84	0x3cbeb322	0.023278777
85	0xbc8d817f	-0.017273663
86	0x3c85424b	0.016266963
87	0xbbf99d4d	-0.0076176287
88	0xbcd46787	-0.025928272
89	0xbd10a5d6	-0.035314403
90	0xbc5024ca	-0.012704084
91	0x3c789a0d	0.015173447
92	0xbd2d23d4	-0.042270496
93	0xbc8bef4a	-0.017081875
94	0x3c0c875e	0.008577196
95	0xbd2c7c57	-0.042110767
96	0xbb69e3cc	-0.0035688756
97	0x3c289d74	0.010291446
98	0xbcfe85f9	-0.031069743
99	0xbd0485dd	-0.032354224
100	0x3cd07c8f	0.02545002
101	0x3d08dffd	0.033416737
102	0xbba729be	-0.0051014116
103	0x3d1ede99	0.038786504
104	0xbcb06447	-0.021532191
105	0xbca3b808	-0.019985214
106	0x3d09eed1	0.03367502
107	0xbb81c25e	-0.003959938
108	0x3ce33236	0.027733903
109	0x3c1c9b82	0.00955856
110	0xbd4a1e9e	-0.049345605
111	0xbcaeb8a8	-0.021328285
112	0x3cab7d82	0.02093387
113	0xbdb91eeb	-0.090391
114	0xbd92cfe5	-0.07168559
115	0xbd9e6ced	-0.0773562
116	0xbd680eb2	-0.05665464
117	0xbc274818	-0.01021006
118	0xbcd75196	-0.02628402
119	0x3c60d66b	0.013722996
120	0xbc6fac6b	-0.01462851
121	0x3c2abbf1	0.010420785
122	0x3b9cf297	0.004789661
123	0xbb4e4310	-0.0031473078
124	0x3c17cd47	0.0092652505
125	0x3c8d7187	0.017266048
126	0xbb9b929d	-0.0047477023
127	0xbc7e4430	-0.015519187
128	0x3b4df7c3	0.0031428195
129	0xbc87f166	-0.0165946
130	0x3d3b6161	0.045747165
131	0xbcb0dfa2	-0.021591011
132	0xbacbeb89	-0.0015557866
133	0xbd0e934a	-0.034808435
134	0xbcc46f2f	-0.023978798
135	0x3d596846	0.05307796
136	0xbced4ee4	-0.028968282
137	0x3caf57b0	0.021404117
138	0xbd264a9d	-0.0405985
139	0xbb08cef7	-0.0020875314
140	0xbd32adae	-0.043622665
141	0xbbe64405	-0.0070271515
142	0x3d3ef4f5	0.046620328
143	0xbd0e269b	-0.034704786
144	0xbcb92677	-0.02260135
145	0xbd08455f	-0.033269282
146	0xbd325d9c	-0.043546304
147	0xbd533773	-0.051566552
148	0xbcc3280a	-0.023822803
149	0xbd9e5436	-0.07730906
150	0xbd06a88b	-0.03287558
151	0x3d1b38b3	0.03789587
152	0x3ca4dd5a	0.02012508
153	0xbc8d59f6	-0.01725481
154	0xbc945f7f	-0.018111942
155	0xbd00646d	-0.031345773
156	0xbbfe699c	-0.0077640545
157	0x3c924f57	0.017860098
158	0xbc80a68a	-0.015704412
159	0xbd16c9a5	-0.036813397
160	0x3d0d17fb	0.034446698
161	0xbc955c9f	-0.018232642
162	0x3ba6f3cb	0.0050949804
163	0xbcc7663c	-0.024340741
164	0xbd30bbd1	-0.043147866
165	0xbb498bfb	-0.00307536
166	0x3d6b9499	0.05751476
167	0x3c74f0cf	0.014949991
168	0x3d5f6dc2	0.054548033
169	0x3c25ab97	0.010111711
170	0xbc870b99	-0.016485022
171	0xbd8383b9	-0.064216085
172	0x3c6e9b0a	0.014563331
173	0xbb2a5197	-0.0025988573
174	0xbc19cf80	-0.009387851
175	0x3c0b46fd	0.008500812
176	0xbc1e16ca	-0.009648988
177	0xbd281e4b	-0.041044515
178	0xbd4cb75f	-0.049979564
179	0xbd2af778	-0.04173991
180	0xbc21d912	-0.009878414
181	0xbd10486d	-0.03522532
182	0xbc19e635	-0.009393265
183	0x3b108b12	0.0022055549
184	0x3aaf4158	0.0013370914
185	0x3d02da97	0.031946745
186	0xbd47663d	-0.048681486
187	0xbcb27cd5	-0.02178804
188	0xbd231326	-0.039813183
189	0xbce2e5f8	-0.027697548
190	0xbbd61522	-0.006533281
191	0x3d036ea9	0.032087956
192	0x3cdbc9da	0.026829649
193	0x3c8a3fb8	0.016876087
194	0x3d0b82ad	0.03406017
195	0x3af96349	0.0019026782
196	0x3c33b730	0.010968968
197	0x3b91e08f	0.0044518183
198	0x3c95bd5c	0.01827877
199	0x3ce0e86b	0.027454576
200	0x3b36bda6	0.0027884035
201	0x3d3d6e0e	0.046247534
202	0x3bc8ce95	0.006128142
203	0x3c1f8019	0.009735131
204	0xbd2606d5	-0.04053386
205	0x3be417e8	0.0069608577
206	0xbd7c0834	-0.06153126
207	0xbce56e9c	-0.028006844
208	0x3d25b7d4	0.040458515
209	0xbc59c6e9	-0.013292053
210	0xbd78afd2	-0.06071455
211	0x3c000845	0.007814472
212	0xbcbcf99e	-0.023068246
213	0xbcab2434	-0.020891286
214	0xbd0dbf71	-0.0346064
215	0xbd1a3815	-0.03765114
216	0x3d6ec969	0.05829755
217	0xbc10b2bb	-0.008831675
218	0xbd1abd75	-0.037778337
219	0x3d0fca06	0.035104774
220	0x3ce292c6	0.027657878
221	0xbc8c33b6	-0.017114501
222	0x3c0b170b	0.008489381
223	0xbd54632f	-0.0518524
224	0xbc324e52	-0.010882931
225	0x3bf8f437	0.007597472
226	0xbcce4ca5	-0.025183031
227	0xbd019348	-0.0316346
228	0xbd49aaf3	-0.049235296
229	0x3d0ea9a7	0.03482976
230	0xbbbc7311	-0.0057510217
231	0x3c9574f3	0.018244242
232	0x3d1228d4	0.035683468
233	0x3c809ecb	0.015700718
234	0xbcd6d0bf	-0.026222585
235	0xbd43c6eb	-0.047797125
236	0xbc87935d	-0.01654976
237	0x3c9489f2	0.018132184
238	0x3d125332	0.035723872
239	0x3d1bb21e	0.038011663
240	0xbc98ad9b	-0.018637469
241	0xbac0c8fe	-0.0014708338
242	0x3cfae0dc	0.0306248
243	0xbdc67663	-0.09690549
244	0xbdc0287f	-0.09382724
245	0x3ae0514e	0.0017114074
246	0xbd7bf7df	-0.061515685
247	0xbc097fb2	-0.008392261
248	0xbc4d810a	-0.012542972
249	0xbd521e35	-0.05129834
250	0xbd6e11d0	-0.058122456
251	0xbce1bb90	-0.027555257
252	0x3d3770f0	0.04478544
253	0x3d85d44c	0.06534633
254	0x3cf25dc8	0.029585734
255	0x3d139fae	0.036040954

features.8.bias f4 [64]
0	0xbd27dd31	-0.04098243
1	0xbc0803bf	-0.008301674
2	0x3ca7bdb1	0.020476194
3	0xbb620fa3	-0.0034494183
4	0x3c1aedb6	0.009456089
5	0x3d0c0f8e	0.03419452
6	0xbc15713a	-0.009121234
7	0xbcc14a14	-0.023594894
8	0x3b4825f7	0.0030540207
9	0x3b988ab5	0.004655207
10	0x3d10f3ea	0.035388865
11	0x3cba8928	0.02277048
12	0x3aef5115	0.0018258417
13	0x3ca22de2	0.01979727
14	0xbcb3f064	-0.021965213
15	0xbcfb6c39	-0.030691253
16	0xbc588f26	-0.013217723
17	0x3b953447	0.004553351
18	0x3cb0b6d9	0.021571564
19	0x3d0f71db	0.03502069
20	0xbd29d7b7	-0.041465487
21	0x3ca1bbef	0.019742934
22	0x3ca416b0	0.02003035
23	0x3d4e0272	0.0502953
24	0x3c0b53b6	0.008503845
25	0x3b15f121	0.002287932
26	0x3cf96745	0.03044475
27	0xbc4b96c4	-0.012426082
28	0x3c9f3f7f	0.019439457
29	0xbd42e72d	-0.047583748
30	0x3c23aee8	0.009990431
31	0xbbf2316e	-0.0073911464
32	0xbcaa3ab4	-0.020779945
33	0xbc98ad0f	-0.018637208
34	0xbc92812a	-0.017883856
35	0x3d256fd0	0.040389836
36	0xbbf252db	-0.007395131
37	0x3bd2b8fc	0.0064307433
38	0x39639393	0.00021703383
39	0x3d4571ea	0.04820434
40	0xbd233b80	-0.039851665
41	0x3c8a97d2	0.016918097
42	0x3c21b977	0.009870878
43	0x3ca35ce8	0.019941762
44	0x3b15239a	0.0022756816
45	0x3c678b99	0.014132404
46	0xbcf6d069	-0.030128675
47	0x3cc72f2f	0.024314491
48	0x3d066622	0.032812245
49	0x398bc354	0.00026657677
50	0xbc7a3c90	-0.015273228
51	0x3bc829f4	0.006108517
52	0x3c853be2	0.016263906
53	0x3d028ad1	0.031870667
54	0xbd006651	-0.031347577
55	0x3cf73d37	0.030180557
56	0xbd0f4b4b	-0.034983914
57	0xbc925485	-0.017862568
58	0xbb3cffee	-0.002883907
59	0xbce23ed5	-0.027617851
60	0x3c97f834	0.01855097
61	0xbd28b499	-0.041187856
62	0xbc4d15eb	-0.012517433
63	0x3d11bf3a	0.03558276

features.9.weight f4 [64]
0	0x3f72ff97	0.9492125
1	0x3f875a91	1.0574514
2	0x3f7b29da	0.98110735
3	0x3f830031	1.0234433
4	0x3f79b6e1	0.97544676
5	0x3f79abbc	0.9752767
6	0x3f7340f2	0.95020974
7	0x3f9112f3	1.1333908
8	0x3f807f30	1.0038815
9	0x3f7e4f39	0.99339634
10	0x3f8008b0	1.0002651
11	0x3f76348f	0.9617395
12	0x3f68f9d7	0.91006225
13	0x3f7602c7	0.9609799
14	0x3f6a0d67	0.914267
15	0x3f67248a	0.9029013
16	0x3f82657a	1.0187218
17	0x3f7a4daa	0.97774756
18	0x3f79bc98	0.97553396
19	0x3f7c54e4	0.9856703
20	0x3f81fbaf	1.0154933
21	0x3f797d23	0.9745657
22	0x3f837c01	1.0272218
23	0x3f8019e0	1.0007896
24	0x3f81f6f9	1.0153495
25	0x3f871a67	1.0554932
26	0x3f7dcb1e	0.9913806
27	0x3f82dfcc	1.0224547
28	0x3f7bff24	0.9843619
29	0x3f80a8dd	1.0051533
30	0x3f7921fc	0.9731748
31	0x3f85984a	1.04371
32	0x3f781867	0.96912235
33	0x3f7a866b	0.97861356
34	0x3f6d7649	0.92758614
35	0x3f71a072	0.94385445
36	0x3f68cdf2	0.9093925
37	0x3f7f24ba	0.99665415
38	0x3f78284b	0.9693648
39	0x3f8604eb	1.0470251
40	0x3f77551d	0.9661425
41	0x3f6691b9	0.90066105
42	0x3f713976	0.94228303
43	0x3f8b8ef6	1.0903003
44	0x3f6e6b12	0.93132126
45	0x3f6f621b	0.9350907
46	0x3f8239f0	1.0173931
47	0x3f8f8ccc	1.1214843
48	0x3f7fc593	0.9991085
49	0x3f7afa04	0.98037744
50	0x3f73c85e	0.9522761
51	0x3f8219fd	1.0164181
52	0x3f888c07	1.0667733
53	0x3f7834bf	0.96955484
54	0x3f78464f	0.9698228
55	0x3f861f92	1.0478384
56	0x3f7fc57b	0.99910706
57	0x3f85241f	1.0401648
58	0x3f719c38	0.94378996
59	0x3f899d08	1.0751047
60	0x3f84a1a3	1.0361828
61	0x3f7082ec	0.9394977
62	0x3f7c9d47	0.98677486
63	0x3f6daa3b	0.92837876

features.9.bias f4 [64]
0	0xbda751ef	-0.081699245
1	0xbdcf21ed	-0.10113893
2	0xbe3ad811	-0.18246485
3	0xbdd06dee	-0.101772174
4	0xbd33caa4	-0.043894425
5	0xbe078da1	-0.13237621
6	0xbe108b17	-0.14115559
7	0xbe2f5935	-0.17123874
8	0xbe139c4f	-0.14415096
9	0xbe006091	-0.12536837
10	0xbe5c33a9	-0.21504082
11	0xbdf30f2f	-0.118681304
12	0xbd931b9c	-0.071830004
13	0xbdc2c671	-0.09510506
14	0xbe530fb6	-0.20611462
15	0xbca94f8f	-0.02066782
16	0xbe09215b	-0.1339163
17	0xbe2e9f09	-0.17052855
18	0xbe4b520b	-0.19855516
19	0xbdbbe8ab	-0.09175237
20	0xbde3b96e	-0.11119352
21	0xbe0aa4ab	-0.13539378
22	0xbdcf3c63	-0.1011894
23	0xbddb4ec6	-0.10708384
24	0xbbb2cb49	-0.0054563624
25	0xbdb9c4ff	-0.09070777
26	0xbe1da240	-0.15393925
27	0xbe450df0	-0.19243598
28	0xbe500e97	-0.20318066
29	0xbe284b37	-0.16434942
30	0xbdf76699	-0.12080116
31	0xbe1d0ff6	-0.1533812
32	0xbe2ab4fa	-0.166706
33	0xbdc7f1a6	-0.09762888
34	0xbe24178a	-0.16024604
35	0xbe271c03	-0.1631928
36	0xbdee5908	-0.11638075
37	0xbe363abd	-0.17795844
38	0xbdbc77ae	-0.092025146
39	0xbe625629	-0.2210318
40	0xbd3dd178	-0.046342343
41	0xbdff3873	-0.12461939
42	0xbdf4ddc9	-0.11956365
43	0xbdddc947	-0.10829406
44	0xbdf90ca8	-0.12160617
45	0xbe27f228	-0.16400969
46	0xbe36b914	-0.17844039
47	0xbe57a035	-0.21057208
48	0xbe0c7a1b	-0.13718455
49	0xbda7b81b	-0.08189412
50	0xbba49697	-0.0050228345
51	0xbe20050b	-0.15626924
52	0xbd8abe6c	-0.06774601
53	0xbe120485	-0.14259537
54	0xbde6727f	-0.11252307
55	0xbe3e6aa2	-0.18595365
56	0xbe003b30	-0.12522578
57	0xbda3533d	-0.07974861
58	0xbe1ea430	-0.1549232
59	0xbe25869b	-0.16164629
60	0xbe5292b4	-0.20563775
61	0xbe17d813	-0.1482852
62	0xbe46ac82	-0.19401744
63	0xbdaa769d	-0.08323405

features.9.running_mean f4 [64]
0	0x00000000	0.0
1	0x00000000	0.0
2	0x00000000	0.0
3	0x00000000	0.0
4	0x00000000	0.0
5	0x00000000	0.0
6	0x00000000	0.0
7	0x00000000	0.0
8	0x00000000	0.0
9	0x00000000	0.0
10	0x00000000	0.0
11	0x00000000	0.0
12	0x00000000	0.0
13	0x00000000	0.0
14	0x00000000	0.0
15	0x00000000	0.0
16	0x00000000	0.0
17	0x00000000	0.0
18	0x00000000	0.0
19	0x00000000	0.0
20	0x00000000	0.0
21	0x00000000	0.0
22	0x00000000	0.0
23	0x00000000	0.0
24	0x00000000	0.0
25	0x00000000	0.0
26	0x00000000	0.0
27	0x00000000	0.0
28	0x00000000	0.0
29	0x00000000	0.0
30	0x00000000	0.0
31	0x00000000	0.0
32	0x00000000	0.0
33	0x00000000	0.0
34	0x00000000	0.0
35	0x00000000	0.0
36	0x00000000	0.0
37	0x00000000	0.0
38	0x00000000	0.0
39	0x00000000	0.0
40	0x00000000	0.0
41	0x00000000	0.0
42	0x00000000	0.0
43	0x00000000	0.0
44	0x00000000	0.0
45	0x00000000	0.0
46	0x00000000	0.0
47	0x00000000	0.0
48	0x00000000	0.0
49	0x00000000	0.0
50	0x00000000	0.0
51	0x00000000	0.0
52	0x00000000	0.0
53	0x00000000	0.0
54	0x00000000	0.0
55	0x00000000	0.0
56	0x00000000	0.0
57	0x00000000	0.0
58	0x00000000	0.0
59	0x00000000	0.0
60	0x00000000	0.0
61	0x00000000	0.0
62	0x00000000	0.0
63	0x00000000	0.0

features.9.running_var f4 [64]
0	0x3f800000	1.0
1	0x3f800000	1.0
2	0x3f800000	1.0
3	0x3f800000	1.0
4	0x3f800000	1.0
5	0x3f800000	1.0
6	0x3f800000	1.0
7	0x3f800000	1.0
8	0x3f800000	1.0
9	0x3f800000	1.0
10	0x3f800000	1.0
11	0x3f800000	1.0
12	0x3f800000	1.0
13	0x3f800000	1.0
14	0x3f800000	1.0
15	0x3f800000	1.0
16	0x3f800000	1.0
17	0x3f800000	1.0
18	0x3f800000	1.0
19	0x3f800000	1.0
20	0x3f800000	1.0
21	0x3f800000	1.0
22	0x3f800000	1.0
23	0x3f800000	1.0
24	0x3f800000	1.0
25	0x3f800000	1.0
26	0x3f800000	1.0
27	0x3f800000	1.0
28	0x3f800000	1.0
29	0x3f800000	1.0
30	0x3f800000	1.0
31	0x3f800000	1.0
32	0x3f800000	1.0
33	0x3f800000	1.0
34	0x3f800000	1.0
35	0x3f800000	1.0
36	0x3f800000	1.0
37	0x3f800000	1.0
38	0x3f800000	1.0
39	0x3f800000	1.0
40	0x3f800000	1.0
41	0x3f800000	1.0
42	0x3f800000	1.0
43	0x3f800000	1.0
44	0x3f800000	1.0
45	0x3f800000	1.0
46	0x3f800000	1.0
47	0x3f800000	1.0
48	0x3f800000	1.0
49	0x3f800000	1.0
50	0x3f800000	1.0
51	0x3f800000	1.0
52	0x3f800000	1.0
53	0x3f800000	1.0
54	0x3f800000	1.0
55	0x3f800000	1.0
56	0x3f800000	1.0
57	0x3f800000	1.0
58	0x3f800000	1.0
59	0x3f800000	1.0
60	0x3f800000	1.0
61	0x3f800000	1.0
62	0x3f800000	1.0
63	0x3f800000	1.0

features.12.weight f4 [64, 64, 3, 3]
0	0x3d1e8439	0.038700316
1	0x3d0df17f	0.034654137
2	0x3c918c9d	0.017767245
3	0xbc1e59ae	-0.009664936
4	0x3cd38d64	0.025824256
5	0x3cdf884e	0.027286675
6	0x3b02d86c	0.0019965423
7	0xbd524a8b	-0.05134062
8	0xbc25667a	-0.010095233
9	0xbc0c1b45	-0.008551423
10	0xbbea56eb	-0.0071514747
11	0x3b680283	0.0035401888
12	0xbd070095	-0.03295954
13	0xbc887bd3	-0.016660606
14	0xbc512777	-0.012765757
15	0xbbf02ba1	-0.0073294197
16	0xbc89aed4	-0.016806997
17	0x3a68a260	0.00088742934
18	0xbcc10a02	-0.023564342
19	0x3c19e25e	0.009392349
20	0xbb547367	-0.0032417418
21	0x3c2c0313	0.01049878
22	0x3c86bf51	0.016448649
23	0xbcb5cde9	-0.022192912
24	0xbce6ac84	-0.028158434
25	0x3ca9ed73	0.020743107
26	0xbc92d89f	-0.017925559
27	0xbd11ac57	-0.035564747
28	0xbd1ea9c9	-0.03873614
29	0xbd416a80	-0.047220707
30	0xbd1ad07c	-0.037796482
31	0xbd02af59	-0.031905506
32	0xbca23667	-0.019801332
33	0xbd23604a	-0.03988675
34	0xbc5f7b00	-0.013640165
35	0xbd1d17c4	-0.038352743
36	0x3c539184	0.012913112
37	0x3c087684	0.008329038
38	0xbbc52b2c	-0.0060171094
39	0x3d25db94	0.04049261
40	0xbc4a4797	-0.01234617
41	0x3c103735	0.008802225
42	0x3cf47037	0.029838664
43	0xba10daba	-0.0005525757
44	0xbb0b0413	-0.0021212145
45	0xbbb8c478	-0.0056386553
46	0xbc9f2f01	-0.019431593
47	0x3c1c6132	0.009544658
48	0xbcafbe44	-0.02145303
49	0xbd0e7506	-0.03477957
50	0xbcb7b824	-0.022426672
51	0xbcb8b264	-0.022546
52	0xbca6c043	-0.02035535
53	0x3b0ee4f6	0.0021803952
54	0x3b8eb4e8	0.004355062
55	0xb98e3fa8	-0.00027131778
56	0xbb97da26	-0.0046341596
57	0xbbc9ae7f	-0.0061548348
58	0x3c5a6f76	0.013332238
59	0x3bc43fab	0.005989035
60	0x3b62c25d	0.0034600713
61	0xbc9919fb	-0.018689146
62	0x3b31f85a	0.0027156086
63	0xbcfe6f98	-0.031059071
64	0xbc79e873	-0.015253174
65	0x3b0619d9	0.0020462184
66	0xbc584204	-0.013199333
67	0xbc87f87c	-0.016597979
68	0xbcb8e072	-0.022567961
69	0xbd5cec01	-0.05393601
70	0xbc169443	-0.009190622
71	0xbd0f1670	-0.034933507
72	0x3c70abae	0.014689369
73	0xbccdf867	-0.025142862
74	0xbc0f9a45	-0.008764808
75	0xbcaf30f4	-0.021385647
76	0xbd2fa4e1	-0.04288185
77	0xbd2507f3	-0.040290784
78	0xbca3a2cd	-0.01997509
79	0xbce5bc3b	-0.028043857
80	0xbd121e71	-0.035673562
81	0xbc2ef76d	-0.010679108
82	0xbd2b5f8e	-0.041839175
83	0xbb9881d6	-0.0046541495
84	0x3cc64a21	0.02420527
85	0xbcce73e2	-0.025201742
86	0x3ada1ff5	0.0016641604
87	0xbbd45993	-0.0064804046
88	0x3c0d1397	0.008610628
89	0x3b3b403d	0.0028572225
90	0xbca625bf	-0.02028167
91	0xbc814fc6	-0.01578511
92	0xbd261668	-0.040548712
93	0x39890e8a	0.0002614151
94	0xbd17f1f5	-0.037095983
95	0xbd14889d	-0.036263097
96	0xbd281de1	-0.04104412
97	0xbc3bba1d	-0.011457947
98	0xbd3390e6	-0.043839358
99	0x3ca1bb75	0.019742707
100	0x3ca1bbf1	0.019742938
101	0x3b9b50c6	0.0047398536
102	0x3bc52c2e	0.0060172295
103	0xbc03d1d1	-0.00804563
104	0x3c730830	0.014833495
105	0x3ccdd27a	0.025124777
106	0x3cdd5673	0.027018761
107	0x3a84ceb1	0.00101324
108	0xbce1cecc	-0.027564429
109	0xbc8ad7c9	-0.016948598
110	0xbc05c83a	-0.0081654135
111	0x3b68237a	0.0035421536
112	0x3cc3958b	0.023875019
113	0xbb1aae76	-0.0023602522
114	0x3c5c3ece	0.013442708
115	0xbc5d5937	-0.01351004
116	0xbcc4b3ee	-0.024011578
117	0xbcc49f8c	-0.02400186
118	0xbb510a40	-0.0031896979
119	0xbce74d55	-0.028235117
120	0x3c04dd45	0.008109395
121	0xbcfb29fe	-0.030659672
122	0x3d0feb94	0.035136774
123	0x3c531f3e	0.012885867
124	0xbc376b1f	-0.011194973
125	0x3c75a6b6	0.01499336
126	0x3d8270cb	0.0636917
127	0x3d0913e3	0.03346623
128	0x3d2668ba	0.04062722
129	0x3d92cfd5	0.07168547
130	0x3d0ffb90	0.035152018
131	0x3d3d179e	0.0461651
132	0x3d4306e9	0.047614012
133	0x3cd41388	0.02588822
134	0x3ca93ea0	0.020659745
135	0xbc46dd3f	-0.01213771
136	0xbcb56932	-0.022144888
137	0xbcc44290	-0.02395752
138	0xbccee948	-0.025257722
139	0xbc0dbbdc	-0.008650746
140	0x3c294734	0.010331918
141	0xbb9f5a28	-0.0048630424
142	0x3b35f03d	0.0027761601
143	0x3c5d3ea6	0.013503706
144	0xb8a696c4	-7.943579e-05
145	0xbc0dc060	-0.008651823
146	0x3cc292d4	0.023751654
147	0x3bbea1be	0.005817621
148	0x3c42485b	0.011858071
149	0x3c752b54	0.0149639435
150	0x3c581c3b	0.013190324
151	0x3c406e29	0.011745014
152	0xbbc69399	-0.0060600755
153	0xbc63ed3f	-0.013911544
154	0x3c65e098	0.014030598
155	0x3b95eccc	0.0045753475
156	0xbca677a5	-0.020320723
157	0xbaac420f	-0.0013142246
158	0xbcc4f8a5	-0.024044344
159	0xbd1bdd71	-0.03805298
160	0xbce142b8	-0.027497634
161	0xbd31725d	-0.043321956
162	0xbd3c28e6	-0.04593744
163	0xbd1455ff	-0.036214825
164	0xbb42bf69	-0.002971614
165	0xbc1b98ff	-0.009496926
166	0xbc5e36d5	-0.013562878
167	0xbbf880ce	-0.007583714
168	0xbc0a893b	-0.00845557
169	0xbd1f57a2	-0.038901933
170	0x3cf44106	0.029816162
171	0x3cab12fe	0.02088308
172	0x3c9b17b8	0.018932208
173	0x3c6c78e3	0.0144331185
174	0xbb26537d	-0.0025379353
175	0x3c67653d	0.014123258
176	0x3b8dd201	0.004328013
177	0x3c165656	0.0091758575
178	0xbca7c413	-0.020479238
179	0x39ee2ad4	0.00045426807
180	0xbc596a75	-0.01327001
181	0x3c011117	0.00787761
182	0xbb1269dd	-0.0022340931
183	0x3ac43acf	0.001497114
184	0xbc298e3d	-0.010348854
185	0xbb68199d	-0.0035415657
186	0xbd054240	-0.032533884
187	0xba8b12d9	-0.0010610475
188	0x3c47c57d	0.012193081
189	0x3d1a2b8d	0.03763919
190	0xbc9d6d84	-0.01921726
191	0x3d4d30df	0.050095435
192	0x396e1fec	0.0002270934
193	0xbb76d943	-0.003766612
194	0x3cb56ea4	0.022147484
195	0xba775141	-0.000943441
196	0xbcfe10b7	-0.03101383
197	0x3cb3294e	0.021870282
198	0xbd0e1ace	-0.03469353
199	0xbba4f11e	-0.005033626
200	0x3c08dc48	0.0083533
201	0xbc7c02f8	-0.015381567
202	0x3caf3c23	0.02139098
203	0x3c3ccf96	0.011524102
204	0xbc97bb90	-0.018522054
205	0xb9a8bb14	-0.0003218284
206	0x3a87bde8	0.0010356279
207	0xbc805e77	-0.015670044
208	0x3c9e9480	0.01935792
209	0x3cc5f764	0.024165817
210	0xbcd0a5c2	-0.025469664
211	0x3ceaaa75	0.028645733
212	0x3d1bd5ce	0.038045697
213	0x3d084015	0.03326424
214	0x3c6b66d0	0.014367774
215	0x3d35a07c	0.044342503
216	0xbc5a7f65	-0.013336037
217	0xbab460cd	-0.0013761759
218	0xbbec53a1	-0.007212118
219	0xbd0b8ffa	-0.034072854
220	0xbc7af338	-0.015316777
221	0xbc40fb67	-0.011778689
222	0xbcb020a9	-0.021499949
223	0xbb97c95d	-0.0046321587
224	0xbd099fe3	-0.033599745
225	0x3cdf99cc	0.027295016
226	0x3b86088a	0.0040903734
227	0x3d130b0f	0.03589922
228	0xbc6bc8d9	-0.0143911475
229	0x3c926b7e	0.017873522
230	0xbcb2893a	-0.02179395
231	0x3ac1a9d2	0.0014775342
232	0xbc1bca9c	-0.009508755
233	0xbc4d26f8	-0.012521498
234	0xbd1848aa	-0.037178673
235	0xbca0997a	-0.019604433
236	0xbc7e8451	-0.015534476
237	0xbd113518	-0.035451025
238	0xbc52388e	-0.0128308665
239	0xbd14b03b	-0.03630088
240	0x39a5fb6a	0.0003165857
241	0xbca33a17	-0.01992516
242	0x3bf17a83	0.007369341
243	0x3cd3b0f7	0.02584122
244	0x3a865322	0.0010248164
245	0x3d0ddf72	0.034636922
246	0x3b86ee92	0.0041177953
247	0x39e028c0	0.0004275497
248	0x3c300922	0.010744365
249	0xbab28d8a	-0.0013622504
250	0x3cdde010	0.02708438
251	0x3b155867	0.0022788288
252	0x3d224b14	0.03962238
253	0x3d4b4d64	0.049634352
254	0x3d45b0ba	0.048264243
255	0x3c79f318	0.015255712
